Training Session on 20191106-20
Used Arguments:
phase:train
ckpt:./checkpoint/2019-11-06-20
train_batch_size:128
train_set_size:100000
dev_batch_size:128
dev_set_size:5000
lr:0.0001
weight_decay:0.0005
num_workers:16
start_epoch:0
epochs:20
loss_type:Both
Lambda:1.0
evaluate_every_n_epoch:1
mGPU:True
resume:False

Network Info: 
Number of Network parameters: 0.70 Million
circle_detector(
  (conv_layers): Sequential(
    (0): Conv2d(1, 64, kernel_size=(3, 3), stride=(1, 1))
    (1): BatchNorm2d(64, eps=1e-05, momentum=0.1, affine=True, track_running_stats=True)
    (2): ReLU()
    (3): MaxPool2d(kernel_size=2, stride=2, padding=0, dilation=1, ceil_mode=False)
    (4): Conv2d(64, 128, kernel_size=(3, 3), stride=(1, 1))
    (5): BatchNorm2d(128, eps=1e-05, momentum=0.1, affine=True, track_running_stats=True)
    (6): ReLU()
    (7): MaxPool2d(kernel_size=2, stride=2, padding=0, dilation=1, ceil_mode=False)
    (8): Conv2d(128, 128, kernel_size=(3, 3), stride=(1, 1))
    (9): BatchNorm2d(128, eps=1e-05, momentum=0.1, affine=True, track_running_stats=True)
    (10): ReLU()
    (11): MaxPool2d(kernel_size=2, stride=2, padding=0, dilation=1, ceil_mode=False)
    (12): Conv2d(128, 128, kernel_size=(3, 3), stride=(1, 1))
    (13): BatchNorm2d(128, eps=1e-05, momentum=0.1, affine=True, track_running_stats=True)
    (14): ReLU()
    (15): MaxPool2d(kernel_size=2, stride=2, padding=0, dilation=1, ceil_mode=False)
    (16): Conv2d(128, 32, kernel_size=(1, 1), stride=(1, 1))
    (17): BatchNorm2d(32, eps=1e-05, momentum=0.1, affine=True, track_running_stats=True)
    (18): ReLU()
  )
  (fc_layer): Sequential(
    (0): Linear(in_features=3200, out_features=100, bias=True)
    (1): ReLU()
    (2): Linear(in_features=100, out_features=20, bias=True)
    (3): ReLU()
    (4): Linear(in_features=20, out_features=3, bias=True)
  )
)
Epoch: 1
[Train loss/batch: 0.2350]
[Train loss/batch: 0.1630]
[Train loss/batch: 0.1278]
[Train loss/batch: 0.1011]
[Train loss/batch: 0.0810]
[Train loss/batch: 0.0744]
[Train loss/batch: 0.0727]
[Train loss/batch: 0.0679]
[Train loss/batch: 0.0565]
[Train loss/batch: 0.0742]
[Train loss/batch: 0.0644]
[Train loss/batch: 0.0569]
[Train loss/batch: 0.0539]
…
